npy_result/bias/k_proj_bias_fp32.npy (npy, 2176 bytes, 1 tensors)

array f4 [512]
000000 a9 a9 a4 bc d0 80 7f 3b 60 69 da bb f2 56 c9 bc
       -0.020100432 0.003898669 -0.0066653937 -0.024577592
000010 8c 9e 06 3c fd 66 1b bd e6 31 b7 3c 0a 62 d8 3c
       0.008216511 -0.037940014 0.02236266 0.026413936
000020 06 01 07 bd 8b 78 e7 bc 00 af 10 3a 68 1e a1 bb
       -0.03295996 -0.028255722 0.0005519241 -0.004916955
000030 c0 83 d5 3b 00 c7 50 bc b8 f6 07 bd 8a 0c df bc
       0.00651595 -0.012742758 -0.033194274 -0.027227659
000040 99 22 b0 bc a2 78 cd 3c 19 d6 11 3d 90 ae b4 bb
       -0.021500872 0.025081936 0.03560457 -0.0055139735
000050 13 b1 1e bd ec 4c 87 3c 9e f6 2d bd 2b da de bc
       -0.03874309 0.016516171 -0.04247152 -0.02720364
000060 90 c4 29 3b 60 cc ae ba 8f d8 0f 3d c4 78 2e bd
       0.0025904514 -0.0013336055 0.035118636 -0.04259564
000070 ab e1 ca bc 37 e1 80 bc 0a 8d a5 bc e1 58 0e bd
       -0.02476581 -0.01573239 -0.020208854 -0.03475273
000080 48 c0 58 bc 10 06 03 3b c8 71 12 bc 40 1e 65 ba
       -0.013229437 0.0019992627 -0.00893826 -0.00087401643
000090 bd a8 dc bc 5f 18 ee bc 02 01 e7 bc 60 07 4f 3c
       -0.02693593 -0.029064355 -0.028198723 0.012636036
0000a0 50 c7 41 3c 1b 5b 0d bd 60 69 7f 3c 58 01 06 bc
       0.011827305 -0.034510713 0.015589088 -0.008179031
0000b0 11 47 29 bd 52 3d fb 3c fc d3 40 3c 2c be 86 3c
       -0.04132754 0.030668888 0.011769291 0.016448103
0000c0 1e 0b bc 3c 7b 6a 27 3d c1 84 03 3d e3 3c 2d bd
       0.02295452 0.040873032 0.032109026 -0.042294394
0000d0 00 0e 36 3a 8b a0 30 3d 08 90 0e bc 93 89 11 3d
       0.0006944835 0.043121856 -0.008701332 0.03553159
0000e0 0d 6a 0f 3d 0a 64 fa 3c 87 db ac bc 18 6d d9 bb
       0.035013247 0.03056528 -0.021100773 -0.0066353194
0000f0 58 8f eb 3b 6a 18 5b bc c0 1f 5a 3b ae 9c f3 3c
       0.0071887188 -0.01337252 0.0033283085 0.029737797
000100 63 0e 97 bc fa ee 97 3c 25 b0 27 3d 50 8b 7e 3b
       -0.018439477 0.01854657 0.04093947 0.003884036
000110 88 da 00 bd 08 df 07 3c e6 94 81 bc 6a e0 94 bc
       -0.031458408 0.008292921 -0.01581807 -0.018173415
000120 b1 8c 19 3d 4c 8f d9 bc e2 93 d1 3c b8 9f e3 bc
       0.03748769 -0.026557587 0.025583211 -0.02778612
000130 08 75 3d 3c c8 f6 14 bc ea 58 0b bd 40 1e 18 3c
       0.011563547 -0.00909204 -0.034020342 0.009284556
000140 98 15 38 3c 75 3d 2a 3d ad 16 00 3d 40 20 ac bb
       0.011235617 0.041562516 0.031271625 -0.005252868
000150 2d 94 29 3d a5 2a 07 bd c6 db de bc 7e b5 2f bd
       0.041401077 -0.032999653 -0.027204406 -0.042897694
000160 c3 0c bd bc e0 3f 81 bb 62 9b 2f bd fd 61 0e 3d
       -0.023077374 -0.003944382 -0.042872794 0.034761418
000170 58 70 60 3c bf 8f 07 3d 60 5b 06 3c a4 81 83 bc
       0.01369866 0.03309607 0.008200496 -0.016053028
000180 06 ed e2 3c 60 5a 02 bc c6 ae ff 3c 00 25 af 39
       0.027700912 -0.007956117 0.031211268 0.00033406168
000190 63 fd b5 bc 78 e2 46 3c e1 39 cb bc 33 47 01 bd
       -0.02221555 0.012138955 -0.024807872 -0.03156204
0001a0 bc 94 05 bd d3 14 30 3d 98 af d7 bb dc 7e 13 bc
       -0.032612547 0.04298861 -0.0065822117 -0.009002414
0001b0 96 ad d4 bc b8 94 11 3c 90 56 67 3c 85 09 17 bd
       -0.025961678 0.008885555 0.014119759 -0.036874313
0001c0 96 83 b5 3c 0c b8 2b bd d6 de ba 3c 44 67 de bc
       0.022157472 -0.041923568 0.022811335 -0.02714885
0001d0 66 b1 73 bc 26 f4 b4 3c 35 8d a1 bc 52 66 5d bc
       -0.014873838 0.022089075 -0.019720653 -0.013513165
0001e0 a0 a2 76 bb aa b6 0d bd 30 fa 0a bc 72 19 89 3c
       -0.0037633553 -0.03459803 -0.008482501 0.016735766
0001f0 ca 2f ad 3c f2 34 dd bc 7a a8 f3 3c ee d4 e6 3c
       0.021140952 -0.027002785 0.029743422 0.028177705
000200 9e 76 34 bd c7 1c 21 3d d8 4c 7e 3c a5 06 27 3d
       -0.044058435 0.039334085 0.015521251 0.04077782
000210 7a 11 00 bd e8 30 12 bd 14 8a 25 bc 98 7e 17 bc
       -0.031266667 -0.035691172 -0.010103721 -0.009246491
000220 53 cf 96 bc 96 70 78 bc 83 61 13 3d 60 83 bf 3b
       -0.018409407 -0.015163561 0.035981666 0.0058445185
000230 30 4c 23 bd 12 58 12 bd 58 95 86 bb 34 02 9f bc
       -0.03986758 -0.03572852 -0.0041071586 -0.01941023
000240 85 f9 10 bd 70 7f 36 bb 00 68 f5 ba f4 4e 17 bc
       -0.03539421 -0.0027846955 -0.0018723011 -0.0092351325
000250 d4 ea 41 3c ea 98 e7 3c 82 5d cf 3c c4 ea 96 bc
       0.011835773 0.028271157 0.025313143 -0.018422492
000260 20 6f 2b 3b 00 3d 2f bc 8c 82 04 bd 80 5b 5b 3b
       0.0026158765 -0.010695696 -0.03235106 0.0033471286
000270 a2 0e 02 bd 0c 65 06 bd dc 14 35 3c b2 cc d6 3c
       -0.031752236 -0.03281121 0.011052337 0.026220653
000280 a8 98 b8 3b e8 1f 31 bc 9c cb 21 bd d8 93 03 bc
       0.0056334324 -0.01081083 -0.039500818 -0.008030854
000290 48 6e 8c bb cc fb b3 bc 91 db ab bc 90 ad 93 bb
       -0.0042856075 -0.021970652 -0.02097872 -0.0045067742
0002a0 80 cf 06 3b f1 82 33 3d a9 95 a5 bc 73 39 01 3d
       0.0020570457 0.043826047 -0.020212965 0.03154893
0002b0 84 4f a0 bc 75 dc 14 3d 24 9c 18 bd 43 07 a6 bc
       -0.019569166 0.036343057 -0.037258282 -0.020267135
0002c0 00 84 01 ba a0 e0 30 3c ed 21 32 3d 66 d2 71 bc
       -0.0004940629 0.010795742 0.043489385 -0.014759636
0002d0 a6 c3 82 bc 09 5e 05 3d 5a b3 a7 3c 0a a7 12 bd
       -0.015962433 0.032560382 0.020471264 -0.035803832
0002e0 6c d9 0e 3c 3c 49 32 bd 80 9e 79 bb 42 3d e7 3c
       0.00871883 -0.043526873 -0.0038088858 0.028227452
0002f0 da b4 c0 bc aa 99 cd 3c 40 50 82 bb aa bd a1 3c
       -0.023523737 0.025097687 -0.0039768517 0.01974376
000300 10 59 79 3c d0 21 68 3b 78 7c a1 bc f0 c2 8b 3c
       0.015218988 0.0035420544 -0.019712672 0.017060727
000310 d8 48 5e 3c d0 95 cf bc b6 19 a4 bc cc ca 37 3c
       0.013567172 -0.02533999 -0.020031791 0.011217784
000320 9d 01 1b 3d 72 d4 b8 bc bc 5d 25 3c b0 e7 08 bc
       0.037843335 -0.02256224 0.010093149 -0.00835602
000330 a0 3e 87 3a 5c 29 0c 3c e1 10 0a 3d 17 80 10 3d
       0.0010318346 0.008554783 0.033707503 0.035278406
000340 00 aa a2 b9 dc 2d 0a bc b4 86 a4 bc 68 72 bd 3b
       -0.00031025708 -0.008433785 -0.020083763 0.0057814606
000350 60 ae 43 bb 00 b8 6e ba a0 d9 1f bb e3 ee 00 bd
       -0.0029858574 -0.00091063976 -0.002439119 -0.03147782
000360 13 c9 82 bc 20 98 d7 bb 70 ed 45 3c d9 af 2a 3d
       -0.01596502 -0.006579414 0.012080535 0.041671608
000370 64 0f 09 bc f4 77 8d 3c b2 11 34 bd 2b c2 0c 3d
       -0.008365486 0.017269112 -0.043962188 0.03436486
000380 6a f7 84 3c 62 4b c7 3c 3a aa 23 bd 78 ec 43 bc
       0.016231257 0.024327938 -0.039957263 -0.011958234
000390 e8 a1 c8 bb 3e d2 ed 3c ce 08 11 bd 45 e5 d4 bc
       -0.0061228164 0.029030915 -0.035408787 -0.02598823
0003a0 1b 13 10 3d 4e 3e 2c bd 60 3a 8c 3c d6 2c 57 bc
       0.03517447 -0.042051606 0.01711768 -0.013133248
0003b0 dd 49 11 3d 8a 9e e7 3c b4 73 67 bc 68 e4 b9 bb
       0.035470832 0.02827384 -0.014126707 -0.00567298
0003c0 7f 5d 24 3d d3 b1 1e 3d 56 fb 1b bd fe d1 bf 3c
       0.040128227 0.038743805 -0.03808149 0.023415562
0003d0 9f 2b ae bc e3 41 1d bd aa 2c bc 3c e0 1d 3e 3b
       -0.021261035 -0.038392913 0.022970516 0.0029009506
0003e0 4b 67 b5 bc 36 ea 32 bd 04 d2 22 bc 8c 91 24 bd
       -0.02214398 -0.043680392 -0.009937767 -0.040177867
0003f0 04 5f 0f 3c 2a 10 b2 3c de e7 ae bc e8 e8 d4 3b
       0.008750681 0.021736223 -0.021350797 0.006497491
