params_npy_result/weight/k_proj_weight.npy (npy, 262272 bytes, 1 tensors)

array i1 [512, 512]
21 43 -14 107 -43 -20 23 12
-52 75 103 -40 -62 83 -108 113
79 -49 56 8 86 30 -70 92
-10 -126 -13 43 -76 -69 9 -87
-62 108 -94 -75 -82 -106 -85 78
-78 -4 -69 9 -27 55 54 74
26 4 86 35 87 -126 -54 89
59 -32 -32 -44 -44 22 -12 -108
114 120 -36 -126 10 12 -71 42
-124 48 55 -60 97 -75 34 -42
125 80 84 104 -125 86 21 -64
-68 68 71 -87 55 15 -24 -116
-29 -33 -44 -94 -88 34 79 -102
-87 72 -38 -37 -14 65 -102 -100
57 123 6 -108 -61 -28 15 26
70 56 -112 101 120 -4 88 -68
115 -23 -62 51 -39 14 127 -16
-91 -122 -14 6 -32 -113 6 82
115 56 110 42 -40 41 -32 -72
-40 65 107 -47 -4 -61 -76 0
82 53 -72 96 -79 -8 -55 17
98 -36 5 101 77 -95 -42 114
-26 -103 -47 91 -61 127 17 46
-119 -1 14 -64 -76 120 48 110
47 19 -5 -20 40 52 122 110
-22 -111 -73 -127 48 115 -102 -30
-2 -79 -63 36 46 -5 108 104
-110 45 9 -123 -11 -77 -57 -106
-108 -16 5 16 -19 -37 -41 49
42 -61 -30 -12 64 57 -111 86
-68 75 -35 86 -124 33 -28 37
72 46 -40 -120 60 -100 -107 72
00000000: 152b f26b d5ec 170c cc4b 67d8 c253 9471
00000010: 4fcf 3808 561e ba5c f682 f32b b4bb 09a9
00000020: c26c a2b5 ae96 ab4e b2fc bb09 e537 364a
00000030: 1a04 5623 5782 ca59 3be0 e0d4 d416 f494
00000040: 7278 dc82 0a0c b92a 8430 37c4 61b5 22d6
00000050: 7d50 5468 8356 15c0 bc44 47a9 370f e88c
00000060: e3df d4a2 a822 4f9a a948 dadb f241 9a9c
00000070: 397b 0694 c3e4 0f1a 4638 9065 78fc 58bc
00000080: 73e9 c233 d90e 7ff0 a586 f206 e08f 0652
00000090: 7338 6e2a d829 e0b8 d841 6bd1 fcc3 b400
000000a0: 5235 b860 b1f8 c911 62dc 0565 4da1 d672
000000b0: e699 d15b c37f 112e 89ff 0ec0 b478 306e
000000c0: 2f13 fbec 2834 7a6e ea91 b781 3073 9ae2
000000d0: feb1 c124 2efb 6c68 922d 0985 f5b3 c796
000000e0: 94f0 0510 eddb d731 2ac3 e2f4 4039 9156
000000f0: bc4b dd56 8421 e425 482e d888 3c9c 9548
