result/weights/k_proj_bias.npy (npy, 2176 bytes, 1 tensors)

array f4 [512]
000000 09 bc 27 bd 2a c8 0b bd ae 80 14 bd 74 73 cf bc
       -0.04095081 -0.03412644 -0.03625553 -0.025323607
000010 e7 e0 1d bd 20 6f 14 bb f2 82 a0 bc d3 5a a3 bc
       -0.03854456 -0.0022649243 -0.01959369 -0.01994077
000020 f8 87 ac 3b 10 43 c8 3b 54 86 4f bc ba 37 64 bc
       0.005265232 0.00611151 -0.012666304 -0.013929302
000030 00 24 2c bd 3a 94 d1 3c 62 fb 84 3c 38 50 46 bc
       -0.04202652 0.025583375 0.01623315 -0.012104087
000040 75 8a 34 3d 1a 31 df 3c c8 2b 98 bb ac b2 34 bd
       0.044077355 0.027245093 -0.004643891 -0.044115707
000050 6e 68 f4 3c 30 8e c5 bc 36 b3 17 bd a8 db 06 bd
       0.029834952 -0.024115652 -0.037036143 -0.032924324
000060 fa 1a c3 3c 65 e2 24 3d 5c 54 4a bc 16 f0 80 3c
       0.023816574 0.04025497 -0.012349214 0.015739482
000070 39 2f 22 3d 95 87 18 3d 66 1e f3 bc 70 07 03 bd
       0.039595816 0.037238676 -0.029677581 -0.031989515
000080 f1 25 2d 3d 33 3e e6 bc 01 a6 1b 3d bd ce 2c bd
       0.042272512 -0.02810583 0.03800011 -0.04218935
000090 8c 2c c8 bc 37 5a 22 3d 6f f7 2d 3d 6a 07 7e bc
       -0.024435304 0.039636817 0.0424723 -0.015504697
0000a0 ee c2 c9 3c f0 42 0e bc 90 34 f9 bc 60 32 f6 3b
       0.024629083 -0.008682951 -0.030420572 0.0075133294
0000b0 90 87 c5 bb fe c6 5d bc a0 d1 a9 3b 26 83 e0 3c
       -0.006028123 -0.013536213 0.00518246 0.027406286
0000c0 70 08 74 3c f2 5f c3 3c 72 e1 b8 3c 68 ce 92 bb
       0.01489459 0.023849461 0.022568438 -0.004480172
0000d0 10 d5 2b bc 08 24 3b bc 00 e5 5d 39 20 c9 a3 3b
       -0.01048781 -0.011422165 0.00021161512 0.004998341
0000e0 38 25 00 bc 99 89 10 3d b4 52 50 bc a4 62 1d 3c
       -0.007821374 0.035287473 -0.01271503 0.009606037
0000f0 60 61 53 bc 50 80 17 3c 20 89 0d 3b 54 ee f6 bc
       -0.012901634 0.009246901 0.0021596625 -0.03014294
000100 80 d6 32 3b e1 2e 95 bc 30 99 2f 3c 80 89 13 3b
       0.0027288496 -0.01821083 0.010717675 0.0022512376
000110 f6 90 91 3c 80 9c 3d 3a c9 fe 22 3d 61 76 08 bd
       0.017769318 0.0007233098 0.039793763 -0.03331602
000120 8d 90 d0 bc 93 85 31 3d 27 41 30 bd ca 04 b8 3c
       -0.025459552 0.043340277 -0.043030884 0.022463221
000130 a9 46 0e bd b9 bd 34 3d eb 7d 1a 3d 24 6a 4c 3c
       -0.034735356 0.044126246 0.03771774 0.012476478
000140 24 8f 43 3c 6b 8d 09 3d 45 c4 99 bc ac 9b 08 bd
       0.011935983 0.033582132 -0.018770346 -0.033351585
000150 38 66 d5 bc f8 58 22 3c c5 93 17 bd c5 50 a5 bc
       -0.026049718 0.009908907 -0.03700616 -0.020180115
000160 10 92 ec 3b 70 a7 d9 3b f5 ab c6 bc 50 e4 0d 3c
       0.0072195604 0.0066422746 -0.024251917 0.008660391
000170 d8 7f 4f 3c 32 91 ec 3c 42 8b ac bc 38 a1 0a bd
       0.012664758 0.028877828 -0.021062497 -0.033845156
000180 e0 4f f0 3b b0 be 85 bb c2 9a d3 3c 22 aa bf 3c
       0.0073337406 -0.0040815696 0.02583063 0.023396555
000190 b5 57 21 3d 98 34 d8 3b 40 db 89 bb 51 5d 14 bd
       0.039390285 0.0065980665 -0.004207045 -0.036221806
0001a0 e4 4f 09 bc 51 54 de bc 0e 8d d4 3c 71 e6 0b 3d
       -0.008380864 -0.027139815 0.025946166 0.034155313
0001b0 a0 0f 3a 3c c4 50 8b 3c c5 50 2c 3d c0 3a e3 bb
       0.011356264 0.017006285 0.042069215 -0.006934494
0001c0 e2 f2 9a 3c 54 6d 2a bd 3e d2 34 bd 9f 01 34 3d
       0.018914644 -0.04160817 -0.044145815 0.04394686
0001d0 e8 2c 8a 3c f2 45 bc bc e8 f7 fa bb eb 10 28 3d
       0.016867116 -0.022982571 -0.0076589473 0.04103176
0001e0 b0 43 bf bc d2 28 f2 3c db 9c b5 bc 62 84 57 bc
       -0.023347706 0.02956048 -0.022169521 -0.013154121
0001f0 e2 c4 d0 3c 26 e6 ae 3c d8 00 86 3c df 65 c9 bc
       0.025484506 0.021349978 0.016357824 -0.024584709
000200 ba 4d 97 3c 3d 1c a0 bc 6c 10 8a 3c 8c 26 af bc
       0.01846968 -0.019544715 0.016853534 -0.021380685
000210 a2 1f 11 bd a1 42 2e 3d 70 43 0a bd 54 54 40 3c
       -0.035430558 0.04254401 -0.03375572 0.011738855
000220 88 6b f1 bc 33 8d db bc 89 03 10 3d 60 35 fe 3b
       -0.02947022 -0.026800727 0.03515962 0.0077578276
000230 04 76 86 3c 51 91 04 3d 24 7a 08 bc f0 92 c9 3b
       0.016413696 0.032365147 -0.008329902 0.0061515495
000240 16 0e c4 3c 37 0e 31 3d 6a 0a b8 bc 98 fa 00 bc
       0.023932498 0.043226447 -0.022465903 -0.007872246
000250 f0 ad 36 3b 12 fe 9c bc c7 96 83 bc 4a 22 13 bd
       0.002787467 -0.019164119 -0.016063107 -0.035921372
000260 4d a5 eb bc 00 f0 cc ba c1 bb 2b 3d 10 21 1b 3b
       -0.028765345 -0.001563549 0.041927103 0.002367083
000270 a8 2c 49 bc 42 7e f8 3c b0 bd e8 3b 18 ad 44 3c
       -0.012278713 0.030333642 0.0071026906 0.012004159
000280 08 79 fa bb 28 a0 29 3c de 11 86 3c e8 b7 48 bc
       -0.0076438226 0.010353126 0.016365942 -0.012250878
000290 00 d0 0c 3a b0 3c 50 bc 78 9f 54 3c 32 ed 8a 3c
       0.00053715706 -0.0127097815 0.012977473 0.016958807
0002a0 d0 c7 1f 3c 0e 95 c6 3c a1 c5 12 3d 06 7c b1 3c
       0.009752229 0.024240997 0.035833005 0.021665584
0002b0 24 1b 90 bc 3f cb 00 3d 56 5c 17 bd 88 69 20 3c
       -0.017591067 0.03144383 -0.036953293 0.009790786
0002c0 b4 c2 be bc 0f 9d 14 3d 4a e3 ef 3c f8 be 48 bc
       -0.023286201 0.036282595 0.029283185 -0.012252562
0002d0 c0 58 ed 3b 40 5d c6 3a 24 e1 33 bc 09 11 1b 3d
       0.007243246 0.0015133992 -0.010978971 0.037858043
0002e0 77 5e 2a 3d fc 86 60 3c ac 89 8b 3c 61 16 8c bc
       0.041593995 0.013704058 0.01703342 -0.017100515
0002f0 17 47 06 3d 4f 81 29 bd db 3c 31 3d c2 32 b7 bc
       0.03278264 -0.041383084 0.043270927 -0.02236307
000300 fe b3 fa bc 67 3e ce bc de f4 e9 3c a0 21 ab ba
       -0.030603405 -0.02517624 0.028559145 -0.0013056286
000310 00 54 a7 ba 10 4d 3c bc bf 09 17 bd a4 46 cf bc
       -0.0012766123 -0.0114929825 -0.03687453 -0.025302239
000320 40 86 3c 3c 14 a0 28 bd 56 af e5 3c 00 27 99 b9
       0.011506617 -0.041168287 0.028037708 -0.0002921149
000330 17 b1 1a 3d 44 53 84 3c f2 c1 c4 bc fa e6 87 3c
       0.037766542 0.016152985 -0.024018262 0.01658963
000340 98 80 f0 bb 71 7e bf bc 6f f3 f6 bc b2 dc 24 bd
       -0.0073395483 -0.023375722 -0.030145375 -0.040249534
000350 f4 51 5d 3c da fc 11 bd f2 82 b6 3c c6 34 bb 3c
       0.013508309 -0.03564153 0.022279236 0.022852313
000360 98 9b 9a 3b 2f 53 23 3d 56 6e 98 3c 05 99 25 3d
       0.0047182553 0.039874252 0.0186073 0.040429134
000370 d4 ee 9d bc 42 bc 7a bc 58 4d ae bc 03 ee d6 bc
       -0.019278921 -0.015303673 -0.021277115 -0.02623654
000380 5a 58 99 3c f6 2d 70 bc 00 93 9a b9 42 c5 f8 3c
       0.018718887 -0.014659395 -0.00029482692 0.030367497
000390 26 ce ec 3c e8 1f e1 3b c6 58 18 bd 60 c6 77 3c
       0.028906893 0.0068702586 -0.037194036 0.01512298
0003a0 2f ba 1c bd 4e 3d b0 3c 98 3b 89 bb fb 09 1b 3d
       -0.038263496 0.021513607 -0.0041880123 0.037851315
0003b0 7d de c7 bc ad b0 16 3d a2 d9 79 bc 5a f7 cf bc
       -0.024398083 0.036789585 -0.015249642 -0.025386501
0003c0 3c f4 24 bc 34 0a cf bc d6 cf 8d 3c b0 7b 50 3c
       -0.010067996 -0.02527342 0.017311018 0.012724802
0003d0 00 38 31 38 f0 88 0a 3c 00 02 9c 3b 16 b8 0c bd
       4.2252243e-05 0.0084555 0.0047609806 -0.034355246
0003e0 46 0c 31 bd 6c 51 52 3c 84 c7 1a bd bf 85 32 3d
       -0.043224595 0.012836795 -0.03778793 0.04358458
0003f0 1e 7a be 3c 30 f7 5c 3b 80 cb e0 3a f0 0f 3e bb
       0.02325159 0.0033716671 0.0017150491 -0.0029001199
