result/weights/k_proj_weight.npy (npy, 262272 bytes, 1 tensors)

array i1 [512, 512]
00000000: ae38 aa87 a6a0 258d 4cc9 4518 dc48 b0bb
00000010: efc2 c4d6 4e6f d682 42cc 8cef 088e 9078
00000020: 81d5 1c5c 457e d957 7a6d 89b4 967c f203
00000030: 2329 cd7b 736a 82f2 6640 90f5 3b02 51ee
00000040: c631 06f5 24a3 9bc9 a3e8 ad92 9655 65e3
00000050: 6e91 5d41 ea4e 3baf b9da b49c 1d98 1782
00000060: 2df5 528b b8d7 0683 cb63 fd1f 3c0c 5a82
00000070: c25a af2f 59dc 2717 850e 9a98 42c0 a20c
00000080: 2095 b63d 8b51 c6a2 b3fc 7932 896c 7f0b
00000090: e435 5708 a377 44b0 fcf4 9fb6 2bad 96a5
000000a0: 1c66 fe39 298c 0ee9 4bc8 bb52 8335 b106
000000b0: 6be2 aa98 d373 6ddd 6a88 5a81 caec a3c1
000000c0: fb2c 3167 6d9e a692 9d97 5d1e 4d06 de2b
000000d0: 208d a988 4bdd 6f48 3940 0e24 78e1 243b
000000e0: fa6a 5e7f de27 acae 001e 7777 c5b7 2708
000000f0: 58e4 5154 ab20 fcc4 a47b 9bfc 0a35 d747
-82 56 -86 -121 -90 -96 37 -115
76 -55 69 24 -36 72 -80 -69
-17 -62 -60 -42 78 111 -42 -126
66 -52 -116 -17 8 -114 -112 120
-127 -43 28 92 69 126 -39 87
122 109 -119 -76 -106 124 -14 3
35 41 -51 123 115 106 -126 -14
102 64 -112 -11 59 2 81 -18
-58 49 6 -11 36 -93 -101 -55
-93 -24 -83 -110 -106 85 101 -29
110 -111 93 65 -22 78 59 -81
-71 -38 -76 -100 29 -104 23 -126
45 -11 82 -117 -72 -41 6 -125
-53 99 -3 31 60 12 90 -126
-62 90 -81 47 89 -36 39 23
-123 14 -102 -104 66 -64 -94 12
32 -107 -74 61 -117 81 -58 -94
-77 -4 121 50 -119 108 127 11
-28 53 87 8 -93 119 68 -80
-4 -12 -97 -74 43 -83 -106 -91
28 102 -2 57 41 -116 14 -23
75 -56 -69 82 -125 53 -79 6
107 -30 -86 -104 -45 115 109 -35
106 -120 90 -127 -54 -20 -93 -63
-5 44 49 103 109 -98 -90 -110
-99 -105 93 30 77 6 -34 43
32 -115 -87 -120 75 -35 111 72
57 64 14 36 120 -31 36 59
-6 106 94 127 -34 39 -84 -82
0 30 119 119 -59 -73 39 8
88 -28 81 84 -85 32 -4 -60
-92 123 -101 -4 10 53 -41 71
