result/weights/q_proj_bias.npy (npy, 2176 bytes, 1 tensors)

array f4 [512]
00000000: a396 0a3d 3c1d 413c fe35 d5bc b54e 283d
00000010: 3224 9b3c b29f ec3c 003e 1f3b 20c0 b9bb
00000020: 1841 603c 4051 ec3a 2052 0dbc f63d c73c
00000030: cbaa cdbc 0005 babb 1808 693c 4294 b33c
00000040: 7817 29bd c7cd 0abd 7f8e 00bd 4016 ffbc
00000050: e047 203b edac 30bd 2f4e 313d 8b3a e8bc
00000060: 8875 b1bc 90e1 0abd f0c4 0bbd c0df 77ba
00000070: 5253 8d3c 5682 c2bc a518 25bd 06cf ac3c
00000080: 8753 063d 1ba3 323d d908 87bc 8c9b 21bd
00000090: 00ea 03bd 7faf 02bd 285e 28bd b061 b1bb
000000a0: 736e bcbc 9068 1d3c 3042 3dbc 549e 2bbc
000000b0: c8e7 593c 74fc 19bd 8cb9 0abd 6884 6f3c
000000c0: 3e90 d53c eb75 113d 80aa acba b0a9 163b
000000d0: 9768 b4bc 77e6 133d 821b e23c c6b4 f2bc
000000e0: befe c93c e454 54bc 04ac 5dbc f404 7d3c
000000f0: f1cd d1bc 8028 073a 76e7 19bd 7983 0b3d
00000100: a0ad 87bc c7fe 273d 00c3 81ba 663d 00bd
00000110: 1877 4dbc d2c4 fb3c 7471 28bc 2252 fe3c
00000120: fbb9 053d 84c1 40bc d4fd 173c 60d2 4bbc
00000130: a978 25bd bed0 a8bc 1266 cd3c 0e36 67bc
00000140: b040 1b3b d088 113b a639 57bc d05f c53b
00000150: 22d8 9b3c 7024 2ebb 804d ed3a 00b1 cdbb
00000160: 74df 8f3c 3fd7 093d c340 1f3d 5974 063d
00000170: 1bb5 293d 4c93 243c 0033 3b3b 409a 52bb
00000180: 78ce 593c 8c46 1e3c f812 2bbd c0cc 41bc
00000190: 26df 9b3c b367 203d 4007 153b b834 8ebb
000001a0: 13b8 1ebd 4a5c f93c 2dc7 2e3d c032 e8bb
000001b0: 1f88 1cbd 4c4f f2bc 60bf cdba 58da d0bb
000001c0: 3243 f63c 7122 2fbd 18e8 de3b 4b3d 343d
000001d0: 3e5e 18bd 42b6 24bd 86d1 d83c dc8f 133c
000001e0: cd12 253d 40bf ae3b ae25 ad3c 1cc3 033c
000001f0: 1895 283c e694 e73c f22f bf3c 1e1a 0abd
00000200: d40d f3bc b801 00bc 7e0a cfbc 8248 b03c
00000210: ab45 183d 06b0 dd3c 943f f3bc f40b adbc
00000220: 039a 033d b0b4 e2bb f6a2 debc 0ab6 d93c
00000230: 253e 233d c09b 89bb 2b45 283d 903d afbb
00000240: 3a3a 22bd ec4b 79bc 8231 9abc 61c1 04bd
00000250: 8d3b 003d 4cbd 0cbc dcd0 2e3c ec58 49bc
00000260: 0af4 f0bc 64b5 68bc 7061 9c3b 1643 e43c
00000270: 20a3 18bc 805d e6bc 90d6 abbb 282d 9dbb
00000280: 28a6 093c 7f72 113d 9742 033d 206d 07bd
00000290: c01f 3bbb 7954 b6bc cdcd e1bc 10d3 5cbb
000002a0: ab8e d3bc b25b 923c 833a 2cbd 8fef c1bc
000002b0: 40c2 33bd 8dfb 89bc 33c5 003d 5e21 da3c
000002c0: e252 94bc 8cc9 51bc 7530 323d 3c05 4ebc
000002d0: 4ddf 08bd d827 62bc b8aa c53b 7d43 203d
000002e0: bcc5 50bc cdbe 0abd 72b4 cf3c 6d99 293d
000002f0: d9a5 253d a4da e5bc e01a 16bc b00b abbc
00000300: 1a27 a93c 14ec 6dbc a1ea 073d 8386 313d
00000310: 415e d9bc 00dd 24bc 80f9 85ba e9ac 023d
00000320: 64bb 893c 2af1 da3c 16b0 883c 4e19 b13c
00000330: a49a 3cbc d193 8bbc a0d3 4fbc 0b6d 053d
00000340: be54 aa3c d2ab 9e3c e856 b5bc 70ee 26bb
00000350: 8084 27bd d629 22bd 7b34 09bd 409e 4b3c
00000360: b007 d3bc e9a0 1abd c0eb 353a 05c9 0c3d
00000370: 382a 7abc 1a0e 953c dd6c 2fbd 66f7 7dbc
00000380: 1c1e f4bc 4b6f 2c3d 0d16 bebc abbd 06bd
00000390: a0cf ffba c6b9 c33c 68ab 4f3c 4aa0 f03c
000003a0: 3d3f afbc 209a 81bb 5099 c1bc 1d07 003d
000003b0: 1e59 d13c 98ed 80bb 2a40 8e3c 00cd 063b
000003c0: 9ac0 e7bc 71e3 babc 88cf adbc 105f 7dbb
000003d0: d0d2 d0bb cd44 25bd 9079 4cbc a01f 113b
000003e0: 302a 113b 7407 003c 603f 66bb e096 2abd
000003f0: 0f27 073d 0099 10b9 b097 0d3b e00f a1ba
0.033835065 0.011786755 -0.026026722 0.041090686 0.018938158 0.028884742 0.002429843 -0.005668655
0.013687395 0.0018029585 -0.008625537 0.024321537 -0.025105854 -0.0056768656 0.014223121 0.02192128
-0.041282147 -0.03388765 -0.031385895 -0.03113854 0.0024456903 -0.043133665 0.043287452 -0.028348228
-0.021662489 -0.03390652 -0.03412336 -0.00094556436 0.017251644 -0.02374379 -0.040306706 0.02109481
0.0327945 0.04361258 -0.016483711 -0.03945498 -0.03220558 -0.031905647 -0.04110542 -0.0054132566
-0.023001885 0.009607449 -0.011551425 -0.01047476 0.01329989 -0.037594274 -0.033868358 0.01461897
0.026069757 0.035512846 -0.0013173372 0.0022989325 -0.022022529 0.03610846 0.027601007 -0.029627215
0.024657603 -0.012959693 -0.013529781 0.015443075 -0.025610896 0.0005155876 -0.037574254 0.03406093
-0.016562283 0.04101446 -0.0009900033 -0.031308554 -0.012540601 0.0307335 -0.010280956 0.031045023
0.032648068 -0.011764888 0.009276826 -0.012440294 -0.040398274 -0.020607349 0.025073085 -0.014112009
0.002368968 0.002220679 -0.013136303 0.0060233846 0.019023959 -0.0026572011 0.0018104762 -0.0062772036
0.017562605 0.03365254 0.03888012 0.0328258 0.04143248 0.010044884 0.0028564334 -0.0032135397
0.013293855 0.009660374 -0.041766137 -0.011828601 0.019027304 0.039161395 0.0022739917 -0.0043397807
-0.038749766 0.030439515 0.042670418 -0.007086128 -0.038215753 -0.029578827 -0.0015697293 -0.006373685
0.030061338 -0.042757455 0.00680257 0.044003766 -0.03719925 -0.040212877 0.026467096 0.009006467
0.040301133 0.0053328574 0.021136131 0.008042123 0.010289453 0.028269242 0.023338292 -0.033716314
-0.02966968 -0.00781291 -0.025273558 0.02151895 0.037175816 0.027061474 -0.029693402 -0.021123864
0.0321293 -0.0069185123 -0.027177315 0.02657606 0.039854188 -0.004199475 0.04108159 -0.005347915
-0.03960631 -0.015215855 -0.018822435 -0.032410983 0.031306792 -0.008590054 0.010669913 -0.012289267
-0.029413242 -0.014203403 0.0047723576 0.02786402 -0.009316236 -0.028120756 -0.0052440837 -0.004796643
0.008401431 0.035509583 0.032045927 -0.033063054 -0.002855286 -0.022257077 -0.027563954 -0.003369514
-0.025824865 0.01786599 -0.04204799 -0.0236738 -0.043886423 -0.016843582 0.031438064 0.026627239
-0.018105928 -0.0128044 0.043503243 -0.01257449 -0.03341608 -0.013803445 0.006032314 0.03912686
-0.012742456 -0.033873368 0.025354598 0.041406084 0.040441368 -0.028058358 -0.009161681 -0.020879596
0.020648528 -0.014521617 0.033182744 0.04334117 -0.026534202 -0.010062456 -0.0010221452 0.03190318
0.016812988 0.026726324 0.016685527 0.021618512 -0.011511479 -0.017038258 -0.012684733 0.032574695
0.020792361 0.01936904 -0.022136167 -0.002547171 -0.040897846 -0.03959068 -0.033497315 0.012427866
-0.025760502 -0.037751112 0.00069397315 0.034371395 -0.015268855 0.0181952 -0.04282843 -0.015500879
-0.029799514 0.042098325 -0.023203874 -0.032895725 -0.0019516833 0.023892295 0.012675144 0.029373307
-0.021392459 -0.0039551407 -0.023632675 0.031256784 0.02555519 -0.0039345734 0.01736458 0.0020568967
-0.028290082 -0.02281353 -0.021217123 -0.0038661398 -0.006372787 -0.040348817 -0.012480155 0.0022144094
0.002215039 0.007814277 -0.003513299 -0.04164779 0.032996234 -0.00013789907 0.0021605305 -0.0012288056
