result/weights/q_proj_weight.npy (npy, 262272 bytes, 1 tensors)

array i1 [512, 512]
-81 -95 -41 57 17 44 -68 120
-99 115 -69 -73 -4 -39 124 -2
25 -127 -2 -93 31 -49 124 -57
30 -121 -80 32 16 102 -118 -76
-27 -91 20 -24 83 124 10 87
-8 -93 109 87 -66 50 74 -114
92 -32 118 -41 111 49 -102 -18
69 55 -27 88 89 69 -31 51
35 39 74 -114 0 18 34 -58
43 -93 -110 78 22 -82 42 -44
126 40 116 -17 25 33 41 25
74 -122 -21 -88 -19 -96 -16 26
61 -116 116 -92 -94 -71 55 -107
-51 8 21 116 -55 -80 63 39
117 16 117 -29 -127 115 -45 95
125 30 14 68 49 -101 62 -52
121 -2 35 -111 20 -120 -35 41
-121 -55 78 46 56 -17 -50 77
84 106 -2 -14 37 -77 106 -11
-16 -48 -71 -84 -95 35 42 -96
87 15 -107 -86 127 -124 111 -15
-57 -21 -19 -92 121 40 -46 -73
-58 -54 48 -107 46 51 -96 5
-126 -87 103 -105 113 67 -115 90
7 -73 78 11 46 -107 116 -77
-22 55 -87 25 -82 -27 -46 22
36 34 -5 102 -25 85 70 109
-66 -26 97 -111 59 4 48 49
25 56 21 104 -18 -41 -117 106
-39 53 -124 14 -94 -20 -2 -101
88 17 120 -86 -51 -47 -63 -32
-115 -14 9 -70 -52 -17 -82 101
00000000: afa1 d739 112c bc78 9d73 bbb7 fcd9 7cfe
00000010: 1981 fea3 1fcf 7cc7 1e87 b020 1066 8ab4
00000020: e5a5 14e8 537c 0a57 f8a3 6d57 be32 4a8e
00000030: 5ce0 76d7 6f31 9aee 4537 e558 5945 e133
00000040: 2327 4a8e 0012 22c6 2ba3 924e 16ae 2ad4
00000050: 7e28 74ef 1921 2919 4a86 eba8 eda0 f01a
00000060: 3d8c 74a4 a2b9 3795 cd08 1574 c9b0 3f27
00000070: 7510 75e3 8173 d35f 7d1e 0e44 319b 3ecc
00000080: 79fe 2391 1488 dd29 87c9 4e2e 38ef ce4d
00000090: 546a fef2 25b3 6af5 f0d0 b9ac a123 2aa0
000000a0: 570f 95aa 7f84 6ff1 c7eb eda4 7928 d2b7
000000b0: c6ca 3095 2e33 a005 82a9 6797 7143 8d5a
000000c0: 07b7 4e0b 2e95 74b3 ea37 a919 aee5 d216
000000d0: 2422 fb66 e755 466d bee6 6191 3b04 3031
000000e0: 1938 1568 eed7 8b6a d935 840e a2ec fe9b
000000f0: 5811 78aa cdd1 c1e0 8df2 09ba ccef ae65
