result/weights/q_proj_weight.npy (npy, 262272 bytes, 1 tensors)

array i1 [512, 512]
00000000: 9b57 840a a38d c9dc db0b d327 46a8 8f89
00000010: 007c 7ea8 06cc b7e7 35a4 8560 84d2 5f6f
00000020: e8e4 36b0 4a7e a5ad 67ae 97f9 2064 a095
00000030: c031 6cab da3a 0ce1 93f9 ebe4 0574 5e33
00000040: 8bdf 2598 18be c914 ea72 0198 e28e ac31
00000050: 18a3 ec88 20b8 f940 10e7 09a5 fc35 2abb
00000060: d2d1 919a e978 10ad 4319 d61d 2840 d71a
00000070: 6811 caa2 dae8 9853 0d68 30b5 cf13 941c
00000080: a79a dd61 e616 895b a99c 350b 7d6c 607c
00000090: 31f0 8342 7c35 fb29 44c4 20f0 3b0f 555e
000000a0: 5786 4003 cbec 56df f37f 3ccc 02d3 4b09
000000b0: 3014 d02a 4e71 494f ff56 c043 ca13 142f
000000c0: fb9a cd85 2b5d 367c 2a66 8776 efa1 ad2c
000000d0: 86f5 5faa eb76 6187 f057 25ca d8f5 d212
000000e0: 0a8a 6f62 61e8 f63e 9406 efa9 a913 356b
000000f0: 1ebf 9bc7 77f1 c34d d86a 7850 60b9 03ca
-101 87 -124 10 -93 -115 -55 -36
-37 11 -45 39 70 -88 -113 -119
0 124 126 -88 6 -52 -73 -25
53 -92 -123 96 -124 -46 95 111
-24 -28 54 -80 74 126 -91 -83
103 -82 -105 -7 32 100 -96 -107
-64 49 108 -85 -38 58 12 -31
-109 -7 -21 -28 5 116 94 51
-117 -33 37 -104 24 -66 -55 20
-22 114 1 -104 -30 -114 -84 49
24 -93 -20 -120 32 -72 -7 64
16 -25 9 -91 -4 53 42 -69
-46 -47 -111 -102 -23 120 16 -83
67 25 -42 29 40 64 -41 26
104 17 -54 -94 -38 -24 -104 83
13 104 48 -75 -49 19 -108 28
-89 -102 -35 97 -26 22 -119 91
-87 -100 53 11 125 108 96 124
49 -16 -125 66 124 53 -5 41
68 -60 32 -16 59 15 85 94
87 -122 64 3 -53 -20 86 -33
-13 127 60 -52 2 -45 75 9
48 20 -48 42 78 113 73 79
-1 86 -64 67 -54 19 20 47
-5 -102 -51 -123 43 93 54 124
42 102 -121 118 -17 -95 -83 44
-122 -11 95 -86 -21 118 97 -121
-16 87 37 -54 -40 -11 -46 18
10 -118 111 98 97 -24 -10 62
-108 6 -17 -87 -87 19 53 107
30 -65 -101 -57 119 -15 -61 77
-40 106 120 80 96 -71 3 -54
