result/weights/v_proj_bias.npy (npy, 2176 bytes, 1 tensors)

array f4 [512]
00000000: 65bf 123d a5d9 1c3d 8ef0 c83c da19 ac3c
00000010: 9852 94bc 70d7 e3bc 90e5 b03b 4018 4cbc
00000020: 89bc 213d bd96 243d cb8d e6bc 33e4 fabc
00000030: a0e5 503c 5075 773b f6e0 d23c e812 a53b
00000040: 548c 873c 43e9 0ebd ab78 81bc 907c cebb
00000050: 3486 00bd 396e 023d 725b b63c b09f dabb
00000060: 80f6 7abb b46b d4bc cc50 1abc 6f05 083d
00000070: 6b13 96bc 6216 bf3c 0d86 233d 24b9 0abd
00000080: 8d3f 313d b4d9 1abc 40e9 29ba 563f e73c
00000090: 19bb 023d fcb8 19bc 93b9 133d 60c5 e1bb
000000a0: a984 80bc 1931 87bc 70e9 7c3b c0e8 ff3a
000000b0: b50c e7bc 82d4 b83c 0c0b 473c e080 063c
000000c0: ff5b 123d 289a cabb 92ab ad3c e98e b3bc
000000d0: 50f5 553b 9ec9 1ebd b0f6 a7bc e7db d8bc
000000e0: e45a 24bc 12bc e23c 6afb 8e3c 333d 253d
000000f0: 3473 1f3c 5ddc 323d 8666 20bd 6a4d c33c
00000100: 00fd f4bc ce04 6ebc f1de 093d 6043 d53a
00000110: e8ec 1bbd 906e e33b b96e 1b3d 6528 cebc
00000120: 2a5e 33bd 368f 30bd 585d a3bb c629 823c
00000130: a0fd 43bb 7075 e83b ae2c ed3c 461c 9ebc
00000140: ed81 b6bc 2cf2 12bd 20ee 27bd 5062 5a3b
00000150: 8038 45ba e800 78bc 9805 c7bb d940 2b3d
00000160: d944 b4bc 4868 f13b 2cc5 833c 4791 2d3d
00000170: 1443 933c 2158 2a3d 7697 16bd 7bd1 2a3d
00000180: acc0 08bd 9922 0ebd 60b4 8dbb 4075 fcba
00000190: 6a31 13bd a142 22bd 0398 273d badd a43c
000001a0: f336 313d a014 bdba d508 97bc a65e d03c
000001b0: 32ae 7cbc 0a6f a83c 6b36 c9bc e885 3dbc
000001c0: 7b91 153d 40f3 a2ba ec77 d4bc f0b5 38bb
000001d0: 5e35 07bd f8df 4c3c 6ed7 c73c 2f64 313d
000001e0: 8bf1 d0bc 4cc0 72bc 52f5 a33c b0ec 97bb
000001f0: 9e88 2abd b4a6 7b3c e5b5 223d ea1d bd3c
00000200: 8bd7 2a3d 6908 213d c835 0abd c0a5 823a
00000210: 00a8 a637 e987 0c3d fb19 f3bc 3b38 8cbc
00000220: 922a 0cbd 4081 2bba b2e6 0dbd 4404 293c
00000230: c8b7 22bd cea7 20bd 90e4 0dbd f84b 893c
00000240: 4833 1c3c 7e19 71bc 0000 09b8 783e 8a3b
00000250: 80b1 b139 078c 2c3d ec18 30bc 4d2c 26bd
00000260: eff9 09bd c4c8 8e3c 8dce ccbc 2a23 ed3c
00000270: 1e9a f33c cfe5 9cbc f04a 943c 4e9e b5bc
00000280: ae52 29bd 61b5 243d c0ff dabb 7337 87bc
00000290: 0c11 923c c7fb 233d 00a7 f8b9 35ac 153d
000002a0: 4b38 1d3d 1204 c5bc ef1d 073d 171d 193d
000002b0: b2b5 c63c 40a5 413b 07b6 9bbc c053 43ba
000002c0: 86a1 cd3c befd 863c 0097 7e39 77ac 0b3d
000002d0: ecfb 753c 89dc cfbc a5d4 9bbc cf70 0c3d
000002e0: 4aa1 fabc d2be b23c ee1d ed3c 4c4d 28bd
000002f0: e07a 7fbb 409e 9aba 4e61 32bd d806 263c
00000300: d033 47bc e263 c73c 0034 1cbc 3a52 9c3c
00000310: 8738 d8bc 007d edbb c004 9abc c780 85bc
00000320: 48e3 8f3c e6fe 0bbd 5b74 113d c6d7 b83c
00000330: 70ae 3d3b 8a8c f23c e048 e9bb 2601 d03c
00000340: 5075 22bd 8f40 0d3d d7bb 123d 77a7 2c3d
00000350: 0090 abb9 6f16 163d 248e 25bc dc0f 2f3c
00000360: d418 4cbc 0c58 893c c06b e13b 4eb6 1fbd
00000370: 12e8 c83c 4247 dd3c 1c98 84bc f385 a9bc
00000380: 143a f1bc ba24 25bd 185b 3b3c c8ce 2ebd
00000390: 080c 20bd 0038 9138 0d57 34bd a0be 80ba
000003a0: 52f6 d73c 480c e43b 241e 883c 95ea 2b3d
000003b0: c830 05bd 8074 e43b 9886 d5bb 9893 f3bb
000003c0: d333 213d 402c 123b 00a1 dfbb b0d8 b6bb
000003d0: 126c ce3c f0e0 db3b f40f 18bc 1482 4fbc
000003e0: 13b0 163d 2a29 b73c 3164 1c3d 73bf 153d
000003f0: d043 a93b f84a bdbb 8d15 293d 766a 83bc
0.03582706 0.0382935 0.024528768 0.02100842 -0.01810579 -0.02781269 0.0053984597 -0.0124569535
0.03948644 0.040182818 -0.028143784 -0.030626392 0.012750059 0.0037759133 0.025742035 0.005037654
0.016546406 -0.034890424 -0.01580461 -0.00630147 -0.031377986 0.031843398 0.022260401 -0.0066718683
-0.0038293898 -0.025930263 -0.009418678 0.033208307 -0.018319806 0.023326103 0.039922763 -0.03386797
0.043273497 -0.0094513185 -0.00064815953 0.028228443 0.03191671 -0.009382483 0.03606565 -0.006889984
-0.015688257 -0.016502904 0.0038591288 0.0019524321 -0.028204301 0.02256227 0.01214863 0.008209437
0.035732266 -0.0061829276 0.021199975 -0.02191873 0.0032647438 -0.038766496 -0.020503372 -0.026472045
-0.010031436 0.02767757 0.017453868 0.040341567 0.009732056 0.043667186 -0.039160274 0.023840625
-0.029905796 -0.014527513 0.03365988 0.001627069 -0.03806773 0.0069406703 0.03794739 -0.025165746
-0.043790974 -0.043105327 -0.0049854927 0.01588906 -0.002990581 0.0070940778 0.028951969 -0.019300591
-0.02227875 -0.035875484 -0.040998578 0.003332276 -0.0007523373 -0.015136935 -0.006073665 0.04180989
-0.022005485 0.0073671676 0.01608523 0.042374875 0.017976321 0.041587953 -0.03676554 0.041703682
-0.03338687 -0.034700964 -0.004324481 -0.0019261017 -0.035935797 -0.039614324 0.040916454 0.020125259
0.043265294 -0.0014425702 -0.018436829 0.025435757 -0.015422391 0.02056076 -0.024562081 -0.01156757
0.036515694 -0.0012432113 -0.02593609 -0.0028184615 -0.03300988 0.01250457 0.024394717 0.043308433
-0.025505802 -0.014816355 0.020014439 -0.0046363696 -0.041634195 0.015359569 0.03972425 0.023085553
0.041709464 0.03931466 -0.033742696 0.000996761 1.9866973e-05 0.0343093 -0.029675474 -0.017116657
-0.034220286 -0.0006542392 -0.034643836 0.010315958 -0.03972605 -0.03922253 -0.034641802 0.016759858
0.009533711 -0.0147155505 -3.2663345e-05 0.0042188726 0.0003389232 0.042125728 -0.010748129 -0.040569592
-0.03368562 0.017429717 -0.025000835 0.028947432 0.029736575 -0.01915255 0.01810214 -0.022170212
-0.041338615 0.04021204 -0.00668332 -0.016505932 0.017830394 0.040035035 -0.0004742667 0.036541183
0.038383763 -0.024049792 0.03298753 0.037381258 0.024256561 0.002954796 -0.019007696 -0.00074511394
0.025101434 0.016478416 0.0002427958 0.034100022 0.015013676 -0.025373714 -0.019022295 0.03428727
-0.030594487 0.021819506 0.028944936 -0.04108934 -0.0038983151 -0.001179643 -0.04354983 0.010133468
-0.012158349 0.02433962 -0.009533882 0.019082177 -0.026394142 -0.007247567 -0.018801093 -0.016296757
0.01756443 -0.034178637 0.035511356 0.022563826 0.0028943084 0.02960803 -0.007119283 0.025391173
-0.03966266 0.034485396 0.03582367 0.042151894 -0.0003272295 0.036642488 -0.01010469 0.0106849335
-0.012457091 0.016765617 0.0068793 -0.03899222 0.024524722 0.027011517 -0.016185813 -0.020693755
-0.02944664 -0.04031823 0.011435293 -0.04267767 -0.039073974 6.9245696e-05 -0.04402833 -0.0009822436
0.026362572 0.006959472 0.016615935 0.04197176 -0.032517225 0.0069718957 -0.006516289 -0.007433366
0.039356064 0.0022304207 -0.0068246126 -0.0055800304 0.025198016 0.0067101642 -0.009281147 -0.01266529
0.03678901 0.022358496 0.038181487 0.036559533 0.0051655546 -0.0057767592 0.041280318 -0.016041975
