result/weights/v_proj_weight.npy (npy, 262272 bytes, 1 tensors)

array i1 [512, 512]
000000 20 79 44 9c 4c ab c7 10 bd 6b 65 e3 af 7a de 76
       32 121 68 -100 76 -85 -57 16 -67 107 101 -29 -81 122 -34 118
000010 72 38 02 de d4 5a c6 77 ff 1f 89 a0 4f 0c 14 64
       114 56 2 -34 -44 90 -58 119 -1 31 -119 -96 79 12 20 100
000020 a6 81 2c b8 23 3f 9f 2e f0 cd 08 5e c5 22 fd 21
       -90 -127 44 -72 35 63 -97 46 -16 -51 8 94 -59 34 -3 33
000030 64 14 d2 c6 fe 82 ee cb b6 03 62 ec 97 b8 ca 17
       100 20 -46 -58 -2 -126 -18 -53 -74 3 98 -20 -105 -72 -54 23
000040 a1 b4 c5 1f a8 99 e1 8f c0 73 a7 ff 6b 31 89 68
       -95 -76 -59 31 -88 -103 -31 -113 -64 115 -89 -1 107 49 -119 104
000050 20 2d eb 4f 51 83 fe e4 74 23 c9 51 b9 ac ff 74
       32 45 -21 79 81 -125 -2 -28 116 35 -55 81 -71 -84 -1 116
000060 01 97 aa 40 13 5c cd c3 c5 18 d4 12 16 26 6b 73
       1 -105 -86 64 19 92 -51 -61 -59 24 -44 18 22 38 107 115
000070 b2 93 21 08 5e c6 16 e8 32 3f 23 37 77 36 eb ce
       -78 -109 33 8 94 -58 22 -24 50 63 35 55 119 54 -21 -50
000080 68 8d 1e ef b7 6c c6 40 e1 4f a4 52 1e dd 32 9d
       104 -115 30 -17 -73 108 -58 64 -31 79 -92 82 30 -35 50 -99
000090 fc 20 0e c7 ca 8c 94 60 71 c6 5c d3 67 56 56 94
       -4 32 14 -57 -54 -116 -108 96 113 -58 92 -45 103 86 86 -108
0000a0 0c 87 c3 e5 aa 44 64 29 6b cd 93 68 99 b2 3e 34
       12 -121 -61 -27 -86 68 100 41 107 -51 -109 104 -103 -78 62 52
0000b0 fd e9 21 b2 97 aa 32 11 11 c1 b4 15 bb fa 0d 6f
       -3 -23 33 -78 -105 -86 50 17 17 -63 -76 21 -69 -6 13 111
0000c0 ce 30 c6 bc 1f 22 ce 7a 71 e1 d8 73 fb e2 63 7c
       -50 48 -58 -68 31 34 -50 122 113 -31 -40 115 -5 -30 99 124
0000d0 e2 ab fd fd 5f 2b 59 c4 52 9c 2c c3 55 9a c6 e3
       -30 -85 -3 -3 95 43 89 -60 82 -100 44 -61 85 -102 -58 -29
0000e0 9f 03 b7 82 bd ad 96 21 ca 68 91 ff 39 d4 d4 f5
       -97 3 -73 -126 -67 -83 -106 33 -54 104 -111 -1 57 -44 -44 -11
0000f0 52 36 a2 29 f5 c5 42 48 31 1c 36 c0 c4 ad 60 94
       82 54 -94 41 -11 -59 66 72 49 28 54 -64 -60 -83 96 -108
