npy_result/weight/v_proj_weight.npy (npy, 262272 bytes, 1 tensors)

array i1 [512, 512]
000000 03 01 5c c3 fc 38 08 0d 17 13 a9 f4 79 dd bc f3
       3 1 92 -61 -4 56 8 13 23 19 -87 -12 121 -35 -68 -13
000010 b0 3a 17 fe b4 f9 20 50 af bc b2 26 97 e0 ff f0
       -80 58 23 -2 -76 -7 32 80 -81 -68 -78 38 -105 -32 -1 -16
000020 08 97 f8 3d 49 ec b3 99 89 6d 92 6b 72 46 b2 6b
       8 -105 -8 61 73 -20 -77 -103 -119 109 -110 107 114 70 -78 107
000030 02 98 5c 59 9c 30 f5 2c 7f 2b df 3f 5d 32 49 b2
       2 -104 92 89 -100 48 -11 44 127 43 -33 63 93 50 73 -78
000040 65 5f fb 0e 09 ed 40 4f 2a b7 be 45 46 5e 39 4a
       101 95 -5 14 9 -19 64 79 42 -73 -66 69 70 94 57 74
000050 2b 15 96 72 2f fa e6 c5 40 c6 4e 15 e3 5d 88 3d
       43 21 -106 114 47 -6 -26 -59 64 -58 78 21 -29 93 -120 61
000060 6c eb 42 91 25 e7 6f bd a9 3d 62 94 7e 9b 11 da
       108 -21 66 -111 37 -25 111 -67 -87 61 98 -108 126 -101 17 -38
000070 78 55 04 ff d7 15 fb fb 34 58 77 30 b4 45 8d 1c
       120 85 4 -1 -41 21 -5 -5 52 88 119 48 -76 69 -115 28
000080 fe bf 16 fe 4b 4b f9 d7 2a 9d 15 0b f7 e2 d6 0b
       -2 -65 22 -2 75 75 -7 -41 42 -99 21 11 -9 -30 -42 11
000090 ef c0 73 e7 c5 4e a7 0f 79 d4 fd 8b 34 ba 3e fb
       -17 -64 115 -25 -59 78 -89 15 121 -44 -3 -117 52 -70 62 -5
0000a0 96 d8 04 b8 ea 32 14 74 78 99 84 46 d6 1a 8f ce
       -106 -40 4 -72 -22 50 20 116 120 -103 -124 70 -42 26 -113 -50
0000b0 1d 43 e5 ed 61 ce c0 a0 b3 e9 23 1f bc 25 fa 34
       29 67 -27 -19 97 -50 -64 -96 -77 -23 35 31 -68 37 -6 52
0000c0 ad bc 31 b2 33 df 5f 9f 99 69 58 bb 48 e5 35 bd
       -83 -68 49 -78 51 -33 95 -97 -103 105 88 -69 72 -27 53 -67
0000d0 93 20 3a 6c df 2b 52 0c 87 9a 19 8a f3 b6 ee ad
       -109 32 58 108 -33 43 82 12 -121 -102 25 -118 -13 -74 -18 -83
0000e0 1c c2 17 5a 7b e8 96 47 ee 54 82 2b 07 0b 8e 7a
       28 -62 23 90 123 -24 -106 71 -18 84 -126 43 7 11 -114 122
0000f0 79 12 41 57 cd 5c 52 45 94 c9 6a 24 23 e9 ed 86
       121 18 65 87 -51 92 82 69 -108 -55 106 36 35 -23 -19 -122
