params_npy_result/bias/q_proj_bias_fp32.npy (npy, 2176 bytes, 1 tensors)

array f4 [512]
0	0xbc813bae	-0.015775528
1	0x3d14efab	0.036361378
2	0x3c39bb6c	0.011336189
3	0xbc068a80	-0.008211732
4	0x3c9ec426	0.01938064
5	0x3b3758c0	0.0027976483
6	0x3d125d1f	0.03573334
7	0x3b42b850	0.002971191
8	0x3ce03992	0.027371202
9	0x3ca349ce	0.019932654
10	0xbd28ad5f	-0.041180965
11	0xbca0720b	-0.01958563
12	0xbcc0474b	-0.023471495
13	0x3d07b075	0.033127267
14	0xbc669656	-0.014073929
15	0x3d006b6b	0.03135244
16	0x3d07466d	0.033026148
17	0xbc0daadc	-0.008646693
18	0xbc2c9ffc	-0.01053619
19	0xbceec460	-0.029146373
20	0xbc17235c	-0.009224739
21	0x3b639f00	0.0034732223
22	0x3b321830	0.0027175061
23	0xbce22c41	-0.027608993
24	0xbc0862e8	-0.008324362
25	0xbc46cdd4	-0.012134034
26	0xbd198ba5	-0.03748669
27	0x3cef5de6	0.029219579
28	0x3cc290ba	0.023750652
29	0x3d2dc985	0.042428512
30	0x3d15dfed	0.036590505
31	0x3d0e270d	0.03470521
32	0x3c1a7768	0.009427883
33	0xbc390ed4	-0.011295039
34	0xbc0f3ab0	-0.0087420195
35	0x3d140007	0.03613284
36	0x3c602234	0.01368003
37	0xbd139da7	-0.03603902
38	0x3c186d10	0.009303346
39	0x3ca6104a	0.02027144
40	0x3bd6e808	0.006558422
41	0xbbfeb850	-0.0077734366
42	0x3d1d7e5b	0.03845058
43	0x39222d00	0.00015466288
44	0xbd188a76	-0.03724142
45	0x3c99021e	0.018677767
46	0xbc9e742a	-0.0193425
47	0x3ceced92	0.028921876
48	0x3cde30fe	0.02712297
49	0x3c80e5c8	0.015734568
50	0x3b7c35f0	0.0038484298
51	0x3bf38fa8	0.0074328966
52	0x3b86ef30	0.004117869
53	0xbb217d70	-0.0024641417
54	0x3c886382	0.016649012
55	0xbd0fd24a	-0.035112657
56	0xbd109dfc	-0.035306916
57	0x3c910924	0.017704554
58	0xbc1688f8	-0.009187929
59	0xbbe5c278	-0.007011708
60	0xbc07f1b4	-0.008297373
61	0xbc8e64c7	-0.017382039
62	0xb9f8b780	-0.00047438964
63	0x3cee65a6	0.029101204
64	0xbad2af20	-0.001607392
65	0xbca6c75c	-0.020358734
66	0x3d098027	0.03356948
67	0xbbc617d0	-0.006045319
68	0x3cb99d32	0.022657964
69	0xbccab3d6	-0.024743956
70	0xbbab7620	-0.0052325875
71	0xbd2fc22c	-0.042909786
72	0x3d2da097	0.04238948
73	0xbd03adb6	-0.032148086
74	0x3c513efc	0.012771364
75	0xbcad0150	-0.02111879
76	0x3d1306bb	0.03589509
77	0xbcaa359c	-0.020777516
78	0x3cb9d2f2	0.022683594
79	0x3c30fc10	0.010802284
80	0xbcad1d1c	-0.021132044
81	0x3ca637ca	0.020290274
82	0x3d1501d1	0.036378685
83	0x3ba41a50	0.0050080195
84	0xbc33770c	-0.010953676
85	0x3d2c3e15	0.042051394
86	0x3c78d920	0.015188485
87	0x3c2f0730	0.010682866
88	0x3d2de9cb	0.04245929
89	0xbcb5b4fa	-0.022181023
90	0xbce5f917	-0.028072877
91	0xbd27432c	-0.040835544
92	0xbc185588	-0.009297736
93	0x3b864fe0	0.0040988773
94	0x3d292721	0.04129708
95	0xbce5925f	-0.028023897
96	0xbc6cc054	-0.0144501515
97	0x3d0bcb9f	0.034129735
98	0xbcc9e896	-0.024647038
99	0xbc96b099	-0.018394755
100	0x3b47f320	0.0030509904
101	0x3d095b1b	0.03353415
102	0x3c194808	0.0093555525
103	0x3c1c6574	0.009545673
104	0x3d2c31c3	0.042039644
105	0xbc9912c3	-0.018685704
106	0xbd3189b8	-0.04334423
107	0x3cefa12a	0.029251654
108	0xbbba2d78	-0.00568169
109	0xb9d38400	-0.00040343404
110	0xbd2e3a17	-0.042535868
111	0xbcae792c	-0.021298014
112	0xbd16c9e4	-0.03681363
113	0x3cf24a66	0.029576492
114	0xbca82cbd	-0.020529145
115	0xbbbac0c8	-0.005699251
116	0xbd1a08da	-0.037606098
117	0xbbb6afe0	-0.005575165
118	0xba673300	-0.000881955
119	0xbc9fd1c3	-0.019509202
120	0xbd15a426	-0.036533497
121	0xbccf3da5	-0.02529795
122	0xbd290374	-0.04126306
123	0x3c66e1e8	0.014091946
124	0x3ccf7d86	0.025328409
125	0x3c8e5152	0.01737276
126	0xbd21a034	-0.039459422
127	0x3cb1cd9e	0.021704491
128	0x3cc75062	0.024330322
129	0xbb48ac60	-0.0030620322
130	0x3ca2d9ba	0.01987921
131	0x3d1f9507	0.038960483
132	0x3ad9cee0	0.001661744
133	0x3c979bba	0.018506873
134	0x3a92e360	0.0011206679
135	0xbbdbbdf8	-0.0067059956
136	0xbc85bbcd	-0.016324902
137	0xbc0706cc	-0.008241367
138	0xbc82469d	-0.015902812
139	0x3d1acc23	0.037792336
140	0x3d1fa251	0.038973156
141	0x3c898c80	0.016790628
142	0x3c4051a4	0.011738215
143	0xbbdd8f20	-0.0067614466
144	0x3ce46e0e	0.02788451
145	0x3d026909	0.03183845
146	0xbc9f00ca	-0.019409556
147	0x3b9a3768	0.004706312
148	0x3ca17b36	0.019712072
149	0x3cc4f8ba	0.024044383
150	0x3ce393ea	0.027780492
151	0x3a1958c0	0.00058497116
152	0x3d173751	0.03691799
153	0x3ca8c5a2	0.020602051
154	0xbcd79d8a	-0.026320238
155	0xbce8a206	-0.028397571
156	0xbce5f00b	-0.028068563
157	0x3d291289	0.041277442
158	0x3cd543d2	0.026033316
159	0xbd059dc0	-0.032621145
160	0xbd2af832	-0.041740604
161	0x3cce5512	0.025187049
162	0x3c6368b4	0.013879944
163	0xbd161aec	-0.03664677
164	0x3c0e01c0	0.008667409
165	0x3b6f9150	0.003655512
166	0x3ce863c2	0.02836788
167	0x3c19088c	0.009340417
168	0xbca23bbd	-0.019803876
169	0xbcbac05d	-0.022796804
170	0x3bca1830	0.006167434
171	0xbd04ba04	-0.03240396
172	0x3c57b434	0.013165522
173	0x3d1a2707	0.037634876
174	0x3b13ad00	0.0022533536
175	0x3cc26fa2	0.023734871
176	0x3c39cfcc	0.011341047
177	0xbb599340	-0.003319934
178	0xbd2fb586	-0.042897724
179	0x3cb605f2	0.022219632
180	0x3cb77bea	0.022397954
181	0xbd000dbe	-0.031263106
182	0x3d2c2565	0.04202785
183	0x3d16dc11	0.036830965
184	0x3ca4c96e	0.02011558
185	0xbbacb9a0	-0.0052711517
186	0x3c9fe04e	0.019516136
187	0xbcb85717	-0.022502465
188	0x3d2b360b	0.041799586
189	0x3afc02a0	0.0019226857
190	0xbcaee58c	-0.02134969
191	0xbd34a52d	-0.044102836
192	0x3c59c78c	0.013292205
193	0x3d192301	0.037386898
194	0xbca34a24	-0.019932814
195	0x3c31e354	0.010857422
196	0x3d209d3b	0.039212447
197	0x3d261117	0.040543642
198	0xbd1116b2	-0.035422035
199	0x3d295563	0.041341197
200	0xbbcadf00	-0.0061911345
201	0x3d19c6c9	0.037543092
202	0xbcd662a5	-0.026170084
203	0xbbc48e90	-0.00599844
204	0x3b111290	0.0022136308
205	0x3c20ed24	0.009822164
206	0x3d1a0c97	0.037609663
207	0xbba19fb8	-0.00493237
208	0x3b95bfc0	0.0045699775
209	0xbd04033c	-0.032229647
210	0xbb98b360	-0.004660055
211	0xbceb9d7d	-0.02876162
212	0xbd1527ed	-0.03641503
213	0xbd057014	-0.03257759
214	0x3b4133d0	0.0029480346
215	0x3c012914	0.007883329
216	0xbbcfd3d0	-0.0063423887
217	0xbbb37d38	-0.0054775737
218	0x3d155d65	0.03646602
219	0xbaf73f60	-0.0018863492
220	0x3bbb0048	0.0057068206
221	0x3cbf68a2	0.023365323
222	0xbd228d51	-0.03968555
223	0x3d05939d	0.032611478
224	0x3d19276b	0.037391108
225	0x3cd19416	0.025583308
226	0xbd119780	-0.035544872
227	0xbc640b06	-0.013918644
228	0x3baa0668	0.005188752
229	0xbc0d7038	-0.008632712
230	0x3cf3b352	0.029748593
231	0x3c21b208	0.009869106
232	0x3d1e83dd	0.038699973
233	0x3d3069ad	0.04306953
234	0xbd264a49	-0.040598188
235	0xbafe3be0	-0.0019396506
236	0x3d281ec9	0.041044984
237	0x3ce079ca	0.027401824
238	0xbd153b21	-0.036433343
239	0x3c14a30c	0.0090720765
240	0x3ccb4132	0.024811361
241	0x3d07cc5b	0.033153873
242	0xbc1eaf64	-0.009685371
243	0x3be17060	0.006879851
244	0xbc87e843	-0.016590243
245	0x3d261eeb	0.04055683
246	0xbcd5d6ac	-0.02610334
247	0x3d1e99a5	0.038720746
248	0x3ccc763a	0.024958719
249	0xbc268300	-0.010163069
250	0xbcd17eab	-0.025573095
251	0xbbd04d90	-0.0063569024
252	0xbc22b13c	-0.009929951
253	0xbc2b9698	-0.010472916
254	0x3c9f76ea	0.019465882
255	0x3ce9eba2	0.028554741
