params_npy_result/bias/v_proj_bias_fp32.npy (npy, 2176 bytes, 1 tensors)

array f4 [512]
0	0x3c753238	0.014965586
1	0xbc9a9ce9	-0.018873649
2	0x3d2daf5d	0.042403568
3	0xbd05cbd2	-0.03266508
4	0xbafec8a0	-0.0019438453
5	0xbc837e12	-0.016051326
6	0x3c86b9f6	0.016446095
7	0x3d26ba93	0.040705275
8	0xbce19e01	-0.027541162
9	0x3b917178	0.0044385754
10	0xbd32beb5	-0.043638904
11	0x3c64fdc8	0.013976522
12	0x3d2c3763	0.04204501
13	0xbcfb02e4	-0.030641027
14	0xbacb6480	-0.0015517622
15	0x3d198679	0.03748176
16	0xbc6a1f68	-0.014289714
17	0x3d207429	0.03917328
18	0xbca13217	-0.019677205
19	0xbb494d20	-0.0030716136
20	0xbc4f0064	-0.0126343705
21	0xbd074f7e	-0.033034794
22	0x3cda620e	0.026658084
23	0x3c3dc958	0.011583649
24	0x3cd61a6a	0.026135642
25	0x3ca32292	0.019913945
26	0xbcc5756b	-0.02410384
27	0x3c9ec826	0.019382548
28	0x3c6c4760	0.014421314
29	0x3cfd60a2	0.030929867
30	0x3a71d180	0.00092246383
31	0xbd0d070e	-0.034430556
32	0xbcc5b9b8	-0.02413641
33	0x3d25ad83	0.040448677
34	0x3d298147	0.041383054
35	0xbcda111e	-0.02661949
36	0xbd1e21be	-0.038606398
37	0x3ca36cc6	0.019949328
38	0x3d0a86f7	0.03382012
39	0x3cb42d62	0.021994296
40	0x3c3d9204	0.011570457
41	0xbca4bbcb	-0.020109078
42	0x3c927ee0	0.017882764
43	0xbbf2a650	-0.00740508
44	0xbcc73f9f	-0.02432233
45	0xba15a280	-0.00057081133
46	0xbaff1e60	-0.0019464009
47	0xbd1bc2e1	-0.038027648
48	0x3cdf3e9e	0.027251538
49	0xbbd98e48	-0.0066392757
50	0x3d21233b	0.03934024
51	0x3d17a9a3	0.037027013
52	0xbd1bdea3	-0.03805412
53	0x3d2a9199	0.04164276
54	0xbd1c6f75	-0.03819223
55	0x3d0283dd	0.031864036
56	0x3c45a1a4	0.012062464
57	0xbd17e4c5	-0.037083406
58	0x3ca9bb36	0.020719152
59	0x3c293b54	0.010329086
60	0x3b06b430	0.0020554177
61	0xbd0bc0d7	-0.034119453
62	0x3c9e6d96	0.019339364
63	0x3d3200a5	0.043457646
64	0xbc5f5a50	-0.013632372
65	0x3c0c33b8	0.008557253
66	0xbd2154a3	-0.039387356
67	0x3c989e8a	0.018630285
68	0xbd1edfac	-0.03878753
69	0xbc7a5566	-0.01527915
70	0x3c33e4ac	0.010979813
71	0x3c3e71f8	0.011623852
72	0xbc2fadac	-0.010722559
73	0x3d20f64d	0.03929739
74	0xbc198744	-0.009370629
75	0x3d2840cf	0.04107743
76	0xbc96d40d	-0.01841166
77	0x3d30284d	0.043007184
78	0x3c248034	0.010040332
79	0x3d10db07	0.03536513
80	0xbd288627	-0.041143563
81	0x3c5887d8	0.013215981
82	0xbcc711ba	-0.024300445
83	0x3d17d57b	0.037068825
84	0x3b623230	0.0034514777
85	0xbb09b4d0	-0.0021012314
86	0x3cb70a7e	0.02234387
87	0x3ccb3946	0.024807584
88	0x3c6d498c	0.014482867
89	0xbc997351	-0.018731745
90	0x3a9b6b80	0.0011857599
91	0xba35ee00	-0.0006940067
92	0x3d2cb28d	0.042162467
93	0x3cd71756	0.026256245
94	0xbd2910a4	-0.041275635
95	0xbc6b8c96	-0.01437678
96	0x3d175d1f	0.03695404
97	0x3cff5e12	0.031172786
98	0x3bb9a5c8	0.0056655146
99	0xbd26ac6d	-0.04069178
100	0x3c825c18	0.015913054
101	0xbcc067a5	-0.023486922
102	0x3c8a59ee	0.016888585
103	0x3c6f8600	0.01461935
104	0xbcd2bdcb	-0.025725266
105	0xbcd65d30	-0.026167482
106	0x3cebbdca	0.028777022
107	0x3cc6d292	0.02427033
108	0x3d1ad731	0.03780288
109	0xbc979a32	-0.018506143
110	0x3d2a9c0d	0.041652728
111	0x3d1202c9	0.035647187
112	0xbc107764	-0.008817527
113	0x3cd7563e	0.02628624
114	0x3bb7e628	0.0056121536
115	0xbc375950	-0.011190727
116	0x3b4579b0	0.0030132346
117	0x3c46cfa4	0.012134466
118	0x3c95d88e	0.018291738
119	0x3cf26236	0.029587846
120	0x3c469d8c	0.012122523
121	0xbd1db8a7	-0.038506176
122	0xbb651620	-0.0034955814
123	0x3ca82de2	0.020529691
124	0x3d0454af	0.032307323
125	0xbca943b9	-0.020662175
126	0x3c33186c	0.010931116
127	0x3cf402fe	0.029786583
128	0x3afa3aa0	0.0019090958
129	0xbd2ed358	-0.04268202
130	0xbc667d62	-0.0140679795
131	0x3d219c59	0.039455745
132	0x3b9c2a20	0.004765764
133	0x3ce6d7f2	0.028179143
134	0x3b1b5230	0.002370011
135	0xbd03edaa	-0.032209076
136	0x3abf6fa0	0.001460541
137	0x3ce65c36	0.028120141
138	0x3bf18840	0.0073709786
139	0xbcc703d1	-0.024293812
140	0xbb801390	-0.003908582
141	0x3c299e24	0.010352645
142	0x3cd03802	0.025417332
143	0xbcc65f4b	-0.024215361
144	0xbbaebdf8	-0.0053327046
145	0x3cdc5036	0.026893716
146	0xbcb50aea	-0.02209993
147	0xbcdc6062	-0.026901428
148	0xbba8db10	-0.0051530674
149	0xbb80b6f8	-0.0039280616
150	0xbca5400e	-0.020172145
151	0xba3ab700	-0.0007122606
152	0x3c915d6e	0.017744746
153	0xbd1ca2a9	-0.038241062
154	0x3cd3437e	0.025789019
155	0x3d058b99	0.032603834
156	0x3cf7c71e	0.030246314
157	0x3c8f5b20	0.017499506
158	0x3d15f0c3	0.03660656
159	0xbce795e0	-0.028269708
160	0xbcc86791	-0.024463447
161	0x3b97f720	0.004637614
162	0xbc855351	-0.01627508
163	0xbc83a455	-0.01606957
164	0xbce43674	-0.027857997
165	0xbd00245b	-0.03128467
166	0xbd043591	-0.032277647
167	0xba908ea0	-0.0011028834
168	0x3c91b9f2	0.017788861
169	0xb9b24380	-0.00034001097
170	0x3cf7b316	0.030236762
171	0xbc0a86cc	-0.00845499
172	0xbd2e8781	-0.042609695
173	0x3cd8211a	0.026382972
174	0xbca7b835	-0.020473579
175	0x3cf557ea	0.029949147
176	0x3cb7c23e	0.02243149
177	0xbcb1f05f	-0.021721063
178	0xbc3e7414	-0.011624355
179	0xbcb2d00c	-0.02182772
180	0x3ca98522	0.020693365
181	0x3ca0674a	0.019580502
182	0x3ce28d72	0.027655337
183	0xbc89ebda	-0.016836096
184	0x3d2d3a23	0.04229177
185	0x3c683300	0.014172316
186	0xbd19575d	-0.03743683
187	0x3ba62a70	0.005070977
188	0x3bb71d90	0.005588241
189	0xbd09dd7e	-0.033658497
190	0x3d28b317	0.04118642
191	0xbbf35df0	-0.0074269697
192	0x3ce38d4e	0.02777734
193	0x3d2ba4d1	0.041905228
194	0xbd3501d5	-0.0441912
195	0xbd113f01	-0.035460476
196	0xbc1997a0	-0.009374529
197	0xbce26eae	-0.027640667
198	0xbc7896fe	-0.015172718
199	0xbce95a53	-0.028485453
200	0x3c3a5fa8	0.011375345
201	0xbd28d3b2	-0.041217513
202	0x3c6ccf28	0.014453687
203	0x3bb28c80	0.005448878
204	0xbc001344	-0.007817093
205	0x3d0517bd	0.03249334
206	0xbc8dfb4f	-0.017331747
207	0x3cca39ca	0.02468576
208	0x3b253da0	0.0025213733
209	0x3cfcc162	0.03085393
210	0x3c14d214	0.00908329
211	0x3c0bd1b8	0.008533888
212	0x3ce1f53e	0.02758276
213	0xbd1e5df6	-0.038663827
214	0x3cc2316a	0.023705203
215	0x3ca0cfae	0.01963028
216	0x3bdb1390	0.0066856816
217	0xbceb1562	-0.02869672
218	0xbc621352	-0.013798552
219	0xbd1bded7	-0.038054314
220	0xbb7020c0	-0.0036640614
221	0xbacbdf40	-0.0015554205
222	0x3cb5f286	0.02221037
223	0xbb2fa7c0	-0.0026802868
224	0xbb55c770	-0.0032620095
225	0xbcda327f	-0.026635407
226	0xbc01a224	-0.0079121925
227	0x3c0c109c	0.008548882
228	0xbcacfe6b	-0.02111741
229	0x3ba8fac0	0.005156845
230	0xbcd4c8cc	-0.025974654
231	0x3c9136f2	0.017726395
232	0x3d1f1fab	0.03884856
233	0xbc90689d	-0.017628008
234	0x3cf7b83a	0.030239213
235	0x3d0a4d37	0.033765044
236	0x3c8fd9d6	0.017559927
237	0x3d0adca5	0.03390183
238	0x3d264a0f	0.04059797
239	0x3c94ceac	0.018164955
240	0x3c7b913c	0.015354451
241	0xbcd2d176	-0.025734644
242	0xbd02d1b8	-0.031938285
243	0x3d1b33f9	0.03789136
244	0x3d1d7765	0.03844394
245	0xbcf9eec7	-0.030509366
246	0xbcd4d584	-0.025980718
247	0xbb005610	-0.0019582547
248	0xbccd59a7	-0.025067164
249	0xbcb61080	-0.022224665
250	0x3d1a4e09	0.037672076
251	0x3d10aac9	0.035319123
252	0xbc974adb	-0.018468311
253	0xbcd21db9	-0.025648938
254	0x3d0cf0ed	0.034409452
255	0x3b9113d0	0.0044274107
